models/weights/cnn.pt (torch, 42518 bytes, 14 tensors)

weight f4 [32, 3, 3]
0	0xbdebe0b2	-0.115174666
1	0xbe87c82f	-0.26519915
2	0xbe59b068	-0.212587
3	0x3da9cac1	0.08290625
4	0x3d99d986	0.075121924
5	0x3e27dadf	0.16392086
6	0xbcc7cfb9	-0.024391042
7	0x3e593bf1	0.21214272
8	0x3ce385d4	0.027773775
9	0x3e095e0f	0.13414787
10	0x3e080f57	0.13287102
11	0x3e477ffa	0.19482413
12	0x3d4d1db6	0.050077163
13	0xbbf18824	-0.0073709656
14	0x3e51178f	0.20419143
15	0x3e917b6a	0.2841447
16	0x3e0cf271	0.13764359
17	0xbcdabe5d	-0.0267021
18	0xbe61ea72	-0.2206209
19	0x3d80fff8	0.06298822
20	0xbe07f803	-0.13278203
21	0x3e17c502	0.14821246
22	0x3e8cc7bc	0.27496135
23	0x3ddb3e87	0.107052855
24	0x3adcc350	0.0016842876
25	0xbe85873f	-0.26079747
26	0xbddfeee2	-0.10934235
27	0x3e9b2cb6	0.3030755
28	0xbe5b9e28	-0.2144705
29	0x3d8cc0d3	0.06872716
30	0x3e338421	0.17530872
31	0xbe7f269b	-0.2491707
32	0xbdcaea6a	-0.09907992
33	0xbdbeea20	-0.093219995
34	0x3e18ca1a	0.14920846
35	0x3e7fa1fc	0.24964136
36	0xbe830259	-0.2558773
37	0xbe8d5af6	-0.2760846
38	0x3e10de85	0.14147384
39	0x3e130860	0.14358664
40	0x3d9ae7da	0.075637534
41	0xbe50e4c4	-0.20399767
42	0x3e832e86	0.25621432
43	0x3e89f2c0	0.26943016
44	0xbe6faaf2	-0.23405054
45	0x3e924be5	0.28573528
46	0xbac4bc04	-0.0015009646
47	0xbe4d5bb2	-0.2005451
48	0xbd92b869	-0.0716408
49	0xbe691eb6	-0.22765622
50	0x3e9d0390	0.3066678
51	0x3e2bf10e	0.16791174
52	0xbe12d887	-0.14340411
53	0xbe2e9e94	-0.1705268
54	0x3e84cd17	0.2593772
55	0xbe27b2e2	-0.16376832
56	0xbdd9adf0	-0.10628879
57	0x3e97ac0c	0.2962345
58	0xbe5d3d19	-0.21605338
59	0xbbe91b99	-0.0071138856
60	0xbde24076	-0.11047451
61	0xbe72de1f	-0.23717545
62	0xbe9dcc64	-0.3082
63	0x3d8ff6a8	0.07029468
64	0xbe9594f8	-0.29215217
65	0x3eaa337f	0.33242413
66	0x3d9dc53d	0.07703636
67	0xbe34655b	-0.17616789
68	0xbe48bfbf	-0.19604395
69	0xbd9f2232	-0.07770194
70	0xbd23fe8b	-0.040037673
71	0xbdcc7729	-0.099836655
72	0xbe9efd25	-0.3105251
73	0x3e98b1b5	0.2982308
74	0x3e69d17e	0.22833821
75	0x3ceedc94	0.029157914
76	0xbe24ed10	-0.16106057
77	0x3e9f4234	0.31105196
78	0xbe99e08b	-0.30054125
79	0xbd190d65	-0.03736629
80	0x3dbf3b32	0.093374625
81	0xbe9abdfd	-0.30223075
82	0x3db8f607	0.09031301
83	0x3e6e7bdd	0.23289438
84	0x3ea0ad21	0.31382087
85	0x3e2e6084	0.17029005
86	0x3e1874c5	0.14888294
87	0x3da99868	0.08281022
88	0xbe85ded3	-0.26146564
89	0xbd59761c	-0.053091154
90	0xbe978b07	-0.29598257
91	0xbd9b14cf	-0.07572328
92	0x3d3d8ae4	0.046275035
93	0xbe5e5f91	-0.21716143
94	0x3e056698	0.13027418
95	0xbcc3af96	-0.023887437
96	0x3ea685fd	0.325241
97	0xbdb112f2	-0.08646192
98	0x3d7f8c1c	0.062389478
99	0xbd99330b	-0.07480439
100	0xbe81b50f	-0.2533345
101	0x3e80e6e4	0.25176156
102	0xbe7ee9ac	-0.24893826
103	0xbd5e1331	-0.05421752
104	0xbd409b18	-0.04702291
105	0xbe905c99	-0.28195646
106	0xbc0312d5	-0.008000095
107	0xbe181344	-0.14851099
108	0xbe67c5bb	-0.22634022
109	0x3e4f36cb	0.20235746
110	0xbe781725	-0.24227579
111	0x3de67d6a	0.112543896
112	0x3cf97ffc	0.030456536
113	0xbe8edea6	-0.27904242
114	0xbdd958a5	-0.10612611
115	0xbe88d889	-0.26727703
116	0xbe228348	-0.15870392
117	0xbdf3822c	-0.11890063
118	0xbc6db54a	-0.014508555
119	0xbbffb405	-0.0078034424
120	0x3df6c231	0.12048758
121	0xbb627ee0	-0.0034560487
122	0x3d0daf33	0.03459091
123	0xbe84d551	-0.25943998
124	0xbe9ac1b2	-0.30225903
125	0x3dfbdfe7	0.12298565
126	0xbe94017d	-0.28907385
127	0xbe93ea32	-0.28889614
128	0xbba041bd	-0.004890649
129	0xbe89bdfd	-0.26902762
130	0xbd4b7ce5	-0.049679656
131	0xbe0bb3ea	-0.1364285
132	0x3e85195e	0.25995916
133	0x3d7c158c	0.061543986
134	0x3e15a1a9	0.1461245
135	0xbd538af4	-0.051646188
136	0x3d8024a1	0.062569864
137	0x3dba7abb	0.0910544
138	0xbe9fccbd	-0.3121089
139	0xbe0f7aa0	-0.14011621
140	0xbd5bd3d3	-0.05366881
141	0xbe95c594	-0.29252303
142	0x3e924fe5	0.2857658
143	0x3d11ee87	0.035627868
144	0x3e2dc79c	0.16970676
145	0x3dde5b51	0.10857261
146	0xbe9a3179	-0.3011587
147	0x3e08e0f0	0.13367057
148	0xbd8a5605	-0.06754688
149	0x3e74b3e4	0.23896748
150	0xbe9e43cd	-0.30911103
151	0xbc954f68	-0.01822634
152	0x3e8261ef	0.25465342
153	0xbdeb3e67	-0.11486512
154	0xbdb2f976	-0.08738987
155	0xbcdb46db	-0.026767185
156	0xbd6ddaac	-0.05806987
157	0xbe4b0b78	-0.19828594
158	0x3e08899b	0.13333742
159	0xbe440c4e	-0.19145319
160	0x3d337caf	0.04382008
161	0x3bf43ee3	0.0074537857
162	0xbe899eab	-0.26878867
163	0x3cbd4a8b	0.023106834
164	0x3da2d0c1	0.07949973
165	0x3d240261	0.04004133
166	0xbe7ccc87	-0.24687396
167	0x3e95ae1d	0.292344
168	0x3dd6b0ba	0.10482927
169	0xbd51f5e4	-0.05125989
170	0xbe1a3d65	-0.15062483
171	0x3e630d83	0.22173123
172	0x3d879436	0.06620066
173	0x3e27f95c	0.16403717
174	0xbe379817	-0.17929111
175	0x3dbae34e	0.09125386
176	0xbe6c2b7f	-0.23063467
177	0xbe9b91bb	-0.3038462
178	0x3e8ca977	0.2747304
179	0x3e526bc2	0.20548919
180	0x3dd976bd	0.10618351
181	0xbe7fffc8	-0.24999917
182	0xbdd49b24	-0.10381153
183	0xbdd222a4	-0.102605134
184	0x3e0cd6fa	0.13753882
185	0x3d0faf04	0.035079017
186	0x3e9a9998	0.30195308
187	0x3e4f1983	0.20224576
188	0x3dece73a	0.115675405
189	0xbe005603	-0.12532811
190	0xbe454290	-0.19263673
191	0xbe36b971	-0.17844178
192	0xbe9cb02c	-0.30603158
193	0x3e4ce5b3	0.20009498
194	0x3d6c134d	0.057635594
195	0x3e7868cb	0.24258725
196	0x3e1a7e89	0.15087332
197	0x3d0c0b2f	0.034190353
198	0xbe988aa7	-0.29793283
199	0x3be15dcc	0.0068776365
200	0xbdf3cbbc	-0.119040936
201	0xbdfd7173	-0.12375154
202	0xbe496638	-0.196679
203	0xbe9db67c	-0.30803287
204	0xbe4029dc	-0.18765968
205	0x3de79d30	0.11309278
206	0x3e12a50b	0.14320771
207	0xbe49a3b9	-0.19691361
208	0x3e8f6807	0.28009054
209	0xbe2b2b7a	-0.16715804
210	0xbda63fcc	-0.08117637
211	0xbea36efd	-0.31920615
212	0x3e8120cf	0.25220343
213	0x3e1305dc	0.14357704
214	0x3e11850d	0.14210911
215	0xbdffe736	-0.12495272
216	0xbe1fd07a	-0.15606871
217	0xbda09811	-0.07841504
218	0xbeab50b2	-0.33460003
219	0x3da75044	0.08169606
220	0x3e321552	0.17390946
221	0xbe15cf1a	-0.14629784
222	0xbe2f2e40	-0.17107487
223	0x3dd58f08	0.10427672
224	0xbe212b8c	-0.15739268
225	0x3cc78ed8	0.024360105
226	0x3ea315a4	0.31852448
227	0xbc773461	-0.015088172
228	0x3e24a9d0	0.16080403
229	0xbd30af80	-0.04313612
230	0xbe2b8191	-0.16748644
231	0xbda2707f	-0.07931613
232	0x3e6b0a20	0.22953081
233	0xbe2df657	-0.16988502
234	0xbe19be23	-0.15013938
235	0xbdf9fd69	-0.12206537
236	0x3e2fbf23	0.17162757
237	0x3b4dc2fd	0.003139674
238	0xbd05a171	-0.032624666
239	0xbd24637c	-0.04013394
240	0xbe18a3cc	-0.14906234
241	0xbe5cc287	-0.21558581
242	0x3eaaf70f	0.33391616
243	0x3e937b72	0.2880512
244	0x3e2fc398	0.17164457
245	0x3e44495a	0.19168606
246	0x3e981815	0.29705873
247	0xbc4954e2	-0.012288304
248	0x3e85c517	0.2612693
249	0xbe57e0fd	-0.2108192
250	0xbe226d0e	-0.15861914
251	0x3e063b4e	0.1310856
252	0xbe17ce4e	-0.14824793
253	0x3ba7f6ac	0.005125841
254	0x3e251384	0.16120726
255	0xbd111f18	-0.035430044

bias f4 [32]
0	0x3e4a3eea	0.19750562
1	0xbe645385	-0.22297485
2	0x3d9bcc7d	0.076073624
3	0x3b003445	0.0019562405
4	0x3e024825	0.12722833
5	0x3aff793c	0.0019491087
6	0x3ca38e76	0.019965392
7	0xbbc00ded	-0.005861035
8	0xbe6b696c	-0.22989434
9	0x3e1bf7cc	0.15231246
10	0x3e18e2fe	0.1493034
11	0xb9023f2f	-0.00012421304
12	0xbc91edc9	-0.01781358
13	0x3e6ecc55	0.23320134
14	0x3e7454b6	0.2386044
15	0xbe59c67d	-0.21267124
16	0xbddafe7e	-0.10693072
17	0xbd2acd22	-0.041699536
18	0xbe21b0b1	-0.15790059
19	0xbd88a553	-0.06672158
20	0xbda12474	-0.07868281
21	0x3e4befd8	0.19915712
22	0xbc6c440f	-0.014420523
23	0xbd380f37	-0.044936385
24	0x3dc1b09f	0.09457516
25	0xb7c96d4b	-2.401196e-05
26	0x3d7c35bc	0.061574683
27	0xbe2df538	-0.16988075
28	0xbe636cc7	-0.22209464
29	0xbdd5ca14	-0.10438934
30	0x3e10b4e7	0.14131509
31	0x3e1d2a73	0.15348224

weight f4 [32]
0	0x3f7e8411	0.9942027
1	0x3f7cbe57	0.98727936
2	0x3f7bf46f	0.9841985
3	0x3f7e6c68	0.99384165
4	0x3f7c1592	0.98470414
5	0x3f815b30	1.0105953
6	0x3f80b384	1.0054784
7	0x3f80f9fb	1.0076288
8	0x3f7e1aeb	0.99259824
9	0x3f7a5d0f	0.97798246
10	0x3f7b500e	0.9816903
11	0x3f7ebee3	0.9951002
12	0x3f8041f2	1.0020125
13	0x3f805310	1.0025349
14	0x3f801a0f	1.0007952
15	0x3f7af2e6	0.98026884
16	0x3f80e917	1.0071133
17	0x3f7c43ce	0.9854096
18	0x3f7dde62	0.99167454
19	0x3f7d9684	0.99057794
20	0x3f7dfbc1	0.9921227
21	0x3f7bd526	0.98372114
22	0x3f7d5f01	0.9897309
23	0x3f7c94bb	0.98664445
24	0x3f7c0233	0.98440856
25	0x3f7bc55c	0.9834802
26	0x3f812a2f	1.0090998
27	0x3f7bc425	0.9834617
28	0x3f82478e	1.0178087
29	0x3f814853	1.0100197
30	0x3f7fd91f	0.99940675
31	0x3f7f774a	0.99791396

bias f4 [32]
0	0x3ae47f13	0.0017432891
1	0x3c015705	0.007894282
2	0xbbe27421	-0.0069108163
3	0xbc6a4b0b	-0.014300118
4	0x38954c2a	7.11906e-05
5	0x3cbf5cbb	0.023359647
6	0x3b2aaaf8	0.0026041847
7	0x3b1e904a	0.002419489
8	0x3b6163bc	0.0034391722
9	0x3b47b57d	0.0030473166
10	0xbb4c6bd4	-0.00311922
11	0x39866fec	0.0002564186
12	0x3b9d74cd	0.0048051835
13	0x3c214626	0.009843385
14	0x3c61f472	0.01379119
15	0xbc152f29	-0.009105482
16	0x3c78cbd3	0.015185314
17	0x3b993a23	0.00467612
18	0x3cb3c5c9	0.021944897
19	0xbc6ceaa8	-0.014460243
20	0x3c1e2a80	0.0096536875
21	0x3c5d67e7	0.013513542
22	0xbb231a4d	-0.0024887503
23	0x3c99ed3d	0.018789882
24	0xb9ea7179	-0.00044716502
25	0x3c68bc1c	0.014205005
26	0x3c6bf8f2	0.014402615
27	0x3c0d7410	0.0086336285
28	0xbc95776e	-0.018245425
29	0x3cb0a763	0.021564191
30	0x3af26ebe	0.0018496139
31	0x3c8cb7ba	0.017177451

running_mean f4 [32]
0	0x3e447003	0.19183354
1	0x3bcbcbd8	0.0062193684
2	0x3d33d990	0.043908656
3	0x3d862ad7	0.0655114
4	0x3def9d8f	0.11699974
5	0xbc4d55f3	-0.012532699
6	0xbde663df	-0.11249518
7	0xbdbc38b8	-0.09190506
8	0xbe51ad44	-0.20476252
9	0x3e6f0757	0.23342644
10	0x3e03be0a	0.12865463
11	0xbe3b8e50	-0.18316007
12	0xbe5d410e	-0.21606848
13	0x3e0e096f	0.13870786
14	0x3e088342	0.13331321
15	0xbe936239	-0.28785875
16	0xbd87bb2f	-0.06627499
17	0xbe134b13	-0.14384107
18	0xbe48d768	-0.19613421
19	0xbaba5e5f	-0.0014218799
20	0x3cb71083	0.02234674
21	0x3e3d5c75	0.18492301
22	0xbe555d91	-0.20836474
23	0xbd671a9b	-0.056421857
24	0xbd3c5b9f	-0.045985814
25	0x3d54debd	0.051970232
26	0x3ca79536	0.020456892
27	0x3c8e6e4b	0.017386576
28	0xbe5bc4d3	-0.21461801
29	0xbe719a04	-0.23593909
30	0x3dc43016	0.09579484
31	0x3e83b0ad	0.2572073

running_var f4 [32]
0	0x3c814ce7	0.01578374
1	0x3d7f5cb5	0.06234427
2	0x3c6715d2	0.014104323
3	0x3be404fa	0.006958601
4	0x3bb75078	0.0055943094
5	0x3a53524d	0.0008061275
6	0x3caca1eb	0.021073302
7	0x3c2d8e3a	0.0105929915
8	0x3b665112	0.0035143537
9	0x3c8f490f	0.017490892
10	0x3b8b0f3e	0.0042437604
11	0x3d1cd27e	0.03828668
12	0x3d366bfb	0.044536572
13	0x3c4867e5	0.012231802
14	0x3cd4e725	0.025989125
15	0x3c5d2015	0.0134964185
16	0x3b92541e	0.004465594
17	0x3c4eefee	0.012630446
18	0x3b3df405	0.0028984558
19	0x3c80d55e	0.015726741
20	0x3c7021c8	0.014656492
21	0x3c0dc513	0.008652943
22	0x3d527ef6	0.05139061
23	0x3a8fe5fe	0.0010978577
24	0x3d056278	0.03256461
25	0x3bd86c62	0.006604717
26	0x3b22d2f7	0.0024844983
27	0x3d5cee72	0.053938337
28	0x39d63ca6	0.00040862447
29	0x3ca7030b	0.020387193
30	0x3b893db9	0.004188266
31	0x3cab1a72	0.020886634

weight f4 [32, 32, 3]
0	0xbd92106a	-0.07132037
1	0x3d5ae697	0.053442564
2	0x3dad2de9	0.08456022
3	0xbd1072a8	-0.035265595
4	0xbd098d60	-0.03358209
5	0xbd3c22ac	-0.045931503
6	0xbd3be969	-0.045876894
7	0xbda4fcd1	-0.080560334
8	0x3d8ee0fe	0.069765076
9	0xbc26ed8a	-0.01018847
10	0xbdac2da2	-0.08407141
11	0x3c81cc17	0.015844388
12	0x3cc1ea81	0.02367139
13	0xbbaf9484	-0.0053582806
14	0xbce71c70	-0.028211802
15	0x3d2a1f26	0.04153361
16	0x3dc02b5b	0.093832694
17	0x3bb442bf	0.005501121
18	0x3db8ab95	0.09017102
19	0xbb2fda45	-0.002683298
20	0x3c35adf5	0.011088838
21	0xbd55606a	-0.0520939
22	0x3d577fd3	0.052612137
23	0x3d743926	0.059624813
24	0xbdcb5e9b	-0.09930154
25	0xbd3ada20	-0.045618176
26	0x3da3c2de	0.07996152
27	0xbd8d6466	-0.06903915
28	0xbdbd6655	-0.09248034
29	0x3da947a7	0.0826562
30	0xbd85f62d	-0.06541095
31	0x3d37da23	0.044885766
32	0xbd2182b0	-0.039431274
33	0x3bfdaa38	0.007741239
34	0x3c92a0b6	0.017898899
35	0xbdad47d6	-0.08460967
36	0xbcbdc556	-0.023165386
37	0xbd422057	-0.047394123
38	0x3bca8593	0.006180474
39	0xbdc32117	-0.09527796
40	0xbd9885d7	-0.07447403
41	0x3dbb3ba5	0.09142236
42	0xbd526971	-0.051370088
43	0x3d6f9271	0.058489267
44	0x3d47077c	0.048591122
45	0xbcc56505	-0.024096021
46	0x3da0748a	0.07834728
47	0xbc43e120	-0.011955529
48	0x3d78e91e	0.060769193
49	0x3c563121	0.013073237
50	0xbd9b3c8b	-0.07579907
51	0xbd9497af	-0.07255494
52	0x3d351d4c	0.044217393
53	0xbc7e86ab	-0.015535037
54	0x3d9174a2	0.07102324
55	0xbc282b01	-0.010264159
56	0xbd1d02c1	-0.038332704
57	0x3cbe4b5e	0.023229297
58	0x3d5a2ed3	0.05326731
59	0x3b48840d	0.0030596287
60	0xbd78852e	-0.060673885
61	0x3c107f5c	0.008819427
62	0x3b81f397	0.0039658058
63	0xbb30d9c4	-0.0026985267
64	0xbd8d146e	-0.06888662
65	0x3dbaae1f	0.09115242
66	0xbd5d998f	-0.054101523
67	0x3ca78993	0.020451343
68	0xbc80d094	-0.015724458
69	0x3d32dc4c	0.043667123
70	0x3c9c2924	0.019062586
71	0x3d99e26a	0.07513888
72	0x3d709357	0.058734264
73	0xbd01bf32	-0.03167648
74	0x3ce2acf8	0.027670369
75	0x3b14a590	0.002268169
76	0xbdabd58c	-0.0839034
77	0xbd2bf77b	-0.041984063
78	0xbd8b6cd0	-0.06807864
79	0x3d9e0a58	0.07716817
80	0x3de0d18e	0.109774694
81	0xbce9a54f	-0.028521208
82	0x3da26c1e	0.07930778
83	0x3d3d0ac9	0.046152864
84	0x3d9c71cc	0.076388925
85	0x3d68f4a8	0.056873947
86	0x3d3ff1b6	0.046861373
87	0xbb1faad8	-0.0024363305
88	0x3d35452c	0.04425542
89	0x3bf3da20	0.007441774
90	0xbdbbbb37	-0.09166568
91	0xbd8067db	-0.06269809
92	0xbdbd9054	-0.09256044
93	0x3ba689fe	0.005082368
94	0x3cb163a0	0.02165395
95	0x3d5a276a	0.053260244
96	0x3b501a9f	0.0031754149
97	0x3d7470bd	0.059677828
98	0xbd921b2b	-0.07134088
99	0xbd83940c	-0.06424722
100	0xbd8e468f	-0.06947052
101	0xbdbd2e21	-0.09237314
102	0xbd7e86df	-0.06214034
103	0xbdbc07ae	-0.09181152
104	0x3d13a6de	0.03604781
105	0xbd0f6c0e	-0.03501516
106	0x3d7f4a6f	0.062326845
107	0x3d042489	0.032261405
108	0xbdcea6d1	-0.100904115
109	0xbd07064a	-0.032964982
110	0xbd9e5152	-0.07730354
111	0xbd872769	-0.06599314
112	0x3b3d5390	0.0028888918
113	0x3dcfa5e7	0.10139065
114	0xbcbf82a7	-0.02337773
115	0x3d3ac0a8	0.045593888
116	0x3cf17812	0.0294762
117	0x3d55d084	0.05220081
118	0xbd73daf4	-0.05953498
119	0x3c729a24	0.014807258
120	0x3cf0829d	0.029359156
121	0xbdabace3	-0.08382585
122	0xbd0750d2	-0.03303606
123	0xbd538d3d	-0.051648367
124	0xbd64bc04	-0.05584337
125	0x3d5e4003	0.054260265
126	0xbd83a886	-0.06428628
127	0xbd1d8b80	-0.038463116
128	0xb9055dba	-0.00012718784
129	0xbd7e6d66	-0.06211605
130	0x3dc8985c	0.09794685
131	0x3cbdc9d2	0.023167524
132	0xbd91d610	-0.07120907
133	0xbc3c3818	-0.011487983
134	0x3c842877	0.016132576
135	0xbd851527	-0.06498175
136	0x3dbae5ba	0.09125848
137	0x3d981a88	0.074269354
138	0x3d8cc149	0.06872804
139	0x3d1ed0ca	0.038773336
140	0xbb17d65f	-0.0023168547
141	0xbca9fe00	-0.020751
142	0xbd5c458f	-0.053777274
143	0xbd71965d	-0.05898129
144	0xbdaea442	-0.085274234
145	0xbd89d95c	-0.06730911
146	0xbd8b5197	-0.068026714
147	0x3cd5fd87	0.026121868
148	0xbd72f1c9	-0.059312616
149	0xbd8dd872	-0.06926049
150	0x3def578c	0.1168662
151	0xbcc5a88c	-0.024128221
152	0xbda02706	-0.07819943
153	0x3bf5505f	0.0074863876
154	0x3d29eff3	0.0414886
155	0xbca131ea	-0.019677121
156	0xbd79ea5d	-0.061014522
157	0xbd05e8ec	-0.032692835
158	0xbd0577f4	-0.0325851
159	0xbcde54b3	-0.027139997
160	0x3cad2d3a	0.02113973
161	0xbbabea7a	-0.0052464576
162	0x3de0dbcd	0.10979424
163	0x3d9f7968	0.07786828
164	0x3d94a9dc	0.072589606
165	0x3d9c8503	0.076425575
166	0xbd476ce5	-0.048687834
167	0x3b6a4f73	0.0035752922
168	0xbd399b47	-0.0453141
169	0x3ce8f5f5	0.028437594
170	0xbd2bcad0	-0.041941464
171	0xbd0ac840	-0.03388238
172	0x3c9d8d04	0.01923228
173	0xbdbdb25a	-0.092625335
174	0xbd04c9f1	-0.03241915
175	0x3d8ddff0	0.06927478
176	0xbd37a50f	-0.044835147
177	0xbc9797f3	-0.018505072
178	0xbc178d58	-0.009250008
179	0x3dbad6b6	0.09122984
180	0x3d3fc007	0.04681399
181	0x3d5fea1a	0.054666616
182	0xbd858c98	-0.06520957
183	0x3c8c5dd1	0.017134579
184	0xbd78a22b	-0.06070153
185	0x3c5e487f	0.013567089
186	0x3d420f57	0.04737791
187	0xbdaea30a	-0.08527191
188	0x3d6e774b	0.058219235
189	0x3caab573	0.020838475
190	0xbdc3cf97	-0.09561079
191	0xbd2aafd8	-0.041671604
192	0x3c941150	0.018074661
193	0xbd91bcc5	-0.07116083
194	0xbd651093	-0.05592401
195	0x3dc7a585	0.09748367
196	0xbd0a06c0	-0.033697844
197	0xbdae331c	-0.08505842
198	0xbdd8b0dd	-0.10580609
199	0x3d34c226	0.044130467
200	0xbda06e2f	-0.07833516
201	0x3ce3c326	0.027803015
202	0x3cb9f8a9	0.022701578
203	0x3d859e89	0.06524379
204	0x3d0f49b5	0.034982402
205	0xbd59175b	-0.05300079
206	0xbd4e0878	-0.050301045
207	0xbccfae8c	-0.025351785
208	0xbd7d6a8a	-0.06186918
209	0x3cb9d107	0.02268268
210	0x3c939539	0.01801549
211	0xbd53a910	-0.051674902
212	0xbc873f20	-0.016509593
213	0xbce10d94	-0.027472295
214	0x3a8c9192	0.0010724536
215	0x3c750369	0.014954426
216	0x3d997d7a	0.07494636
217	0xbcf2519a	-0.029579926
218	0xba32b7ed	-0.0006817568
219	0x3db3d34d	0.08780537
220	0xbd34c5ad	-0.04413383
221	0x3da12d1d	0.07869933
222	0xbc8b5c05	-0.017011652
223	0x3d21a213	0.039461207
224	0xbc1ff543	-0.009763065
225	0xbd916d44	-0.07100919
226	0x3d6e8348	0.05823067
227	0xbc26230d	-0.010140193
228	0x3bb0ef00	0.005399585
229	0xbd58cd37	-0.052930083
230	0x3d409b71	0.04702324
231	0x3dec219f	0.1152985
232	0xbb8cf8ea	-0.004302134
233	0x3d8971f0	0.06711185
234	0x3cd1471a	0.0255466
235	0xbd164525	-0.036687035
236	0xbd130196	-0.035890184
237	0xbccac343	-0.024751311
238	0xbd2a42fa	-0.04156778
239	0x3dfacd8d	0.12246237
240	0x3d44c10b	0.048035663
241	0xbd409a2f	-0.04702204
242	0x3dc9c1d4	0.09851423
243	0x3c65be5d	0.014022437
244	0x3d398180	0.045289516
245	0x3c88c3a8	0.016694859
246	0xbc642fa8	-0.013927378
247	0x3d3d7877	0.046257462
248	0xbb00181b	-0.0019545618
249	0x3dbe1f21	0.09283281
250	0x3d652328	0.05594173
251	0x3dc976f6	0.09837143
252	0x3cd45221	0.025918068
253	0x3d9b917b	0.075961076
254	0x3ded8ed6	0.115995094
255	0x3d31f651	0.043447796

bias f4 [32]
0	0x35a52a9c	1.2305859e-06
1	0xbaf214fa	-0.0018469386
2	0xb833c8ee	-4.2864056e-05
3	0xbb167895	-0.0022960056
4	0x3afb0e8a	0.0019154113
5	0x3aeff1ae	0.0018306279
6	0x34411f9b	1.7986024e-07
7	0x3b5cea0b	0.0033708836
8	0x3c4b55d1	0.012410597
9	0x351dd4fb	5.8796985e-07
10	0xbafb3197	-0.0019164559
11	0x36044258	1.970815e-06
12	0xbca21a43	-0.019787913
13	0x3abee218	0.0014563231
14	0xbc2bba42	-0.010481419
15	0x3c824cf9	0.015905844
16	0xb76301db	-1.3530686e-05
17	0xbc8885f7	-0.016665442
18	0xbb7b66c7	-0.003836082
19	0xbc5c0379	-0.013428562
20	0x39b58e3c	0.00034628983
21	0x3b99f5c7	0.0046984884
22	0xba4bc79a	-0.00077735784
23	0xb3b5dd13	-8.4686825e-08
24	0xbcb5a356	-0.022172611
25	0xba2deba4	-0.00066345395
26	0x3bb05004	0.0053806324
27	0x3cbf69e4	0.023365922
28	0xb91d1bde	-0.00014983068
29	0x3bb6f143	0.00558296
30	0x3cc66b87	0.024221195
31	0xbcf8b1f0	-0.030358285

weight f4 [32]
0	0x3f839116	1.0278652
1	0x3f7d5321	0.9895497
2	0x3f764f0d	0.9621437
3	0x3f7c118e	0.98464286
4	0x3f81bc33	1.0135559
5	0x3f821d46	1.0165184
6	0x3f81b1bd	1.0132366
7	0x3f799f2f	0.9750852
8	0x3f71812b	0.9433772
9	0x3f81bf69	1.0136539
10	0x3f7611e5	0.96121055
11	0x3f72ecee	0.94892776
12	0x3f7c3ad2	0.9852725
13	0x3f7a03db	0.9766213
14	0x3f77c185	0.9677966
15	0x3f82bec1	1.0214463
16	0x3f7f4530	0.99714947
17	0x3f798737	0.97471946
18	0x3f82da7c	1.0222926
19	0x3f78b157	0.971456
20	0x3f824722	1.0177958
21	0x3f7ab945	0.9793895
22	0x3f811b0e	1.0086381
23	0x3f8142ec	1.0098548
24	0x3f77c289	0.9678121
25	0x3f81f229	1.0152026
26	0x3f819c42	1.0125811
27	0x3f81d3b0	1.0142727
28	0x3f81a448	1.012826
29	0x3f81e077	1.0146626
30	0x3f799772	0.9749671
31	0x3f8154cc	1.0104003

bias f4 [32]
0	0x3ba8f21d	0.0051558153
1	0x3b94952f	0.0045343856
2	0xbd0655c5	-0.03279664
3	0xbc29e714	-0.010370035
4	0x3c992242	0.018693093
5	0x3ca0ded2	0.019637499
6	0x3c81f886	0.015865576
7	0xbcacc5ed	-0.021090472
8	0xbd4c115b	-0.04982124
9	0x3c687913	0.014189023
10	0xbced01e5	-0.028931567
11	0xbd3f149c	-0.046650514
12	0xbcd98085	-0.02655054
13	0xbcc39a4e	-0.02387729
14	0xbce3d4a9	-0.027811365
15	0x3ccfa536	0.025347333
16	0xbcae866f	-0.021304337
17	0xbca1feb7	-0.019774778
18	0x3ca8b196	0.020592492
19	0xbcd337c8	-0.025783435
20	0x3c846ca7	0.01616509
21	0x3b9ace4c	0.0047242995
22	0x3c279e4c	0.010230612
23	0x3c3d3853	0.011549073
24	0xbcf008b7	-0.02930103
25	0x3c943bf8	0.018095002
26	0x3c5bc0a2	0.013412626
27	0x3c82cb1e	0.015965994
28	0xbcbaa9a5	-0.022785971
29	0xbcda5b02	-0.026654724
30	0xbc2fd4a7	-0.010731853
31	0x3c4b87ad	0.012422484

running_mean f4 [32]
0	0x3d228b24	0.039683476
1	0xbeb3f240	-0.3514576
2	0x3ec291a3	0.38001737
3	0xbf272e88	-0.65305376
4	0x3ee6ecf2	0.4510265
5	0x3deb2696	0.11481969
6	0x3ddea8ff	0.10872077
7	0x3d19960e	0.03749662
8	0x3e80e356	0.25173444
9	0x3e55d302	0.20881274
10	0xbe8e8ef9	-0.27843454
11	0xbec85a2a	-0.3913129
12	0x3ea82d9f	0.32847306
13	0xbf45235f	-0.77007097
14	0xbeef3701	-0.46721652
15	0x3e2a27bc	0.1661672
16	0x3d5eeff5	0.05442806
17	0xbd64c717	-0.05585393
18	0x3e95c70c	0.29253423
19	0xbec22938	-0.37922072
20	0x3e6c780e	0.23092672
21	0x3db12e3c	0.08651397
22	0x3e0d3bb7	0.1379231
23	0x3db7f460	0.08982158
24	0x3e0da02a	0.13830629
25	0x3d1c912e	0.03822439
26	0x3ec0bd95	0.3764464
27	0x3e9000f0	0.28125715
28	0x3db278e2	0.08714463
29	0x3e9c39e1	0.30512908
30	0xbc743f17	-0.01490762
31	0xbdbaa72b	-0.09113916

running_var f4 [32]
0	0x3c852d9c	0.0162571
1	0x3ead9fa8	0.3391087
2	0x3e7382de	0.2378039
3	0x3e42ee86	0.19036302
4	0x3e91ce5b	0.2847775
5	0x3ea650e8	0.32483602
6	0x3dd6bb46	0.10484938
7	0x3d882a62	0.06648709
8	0x3e1cccb1	0.15312459
9	0x3e315b9f	0.17320107
10	0x3e813320	0.25234318
11	0x3eb98aaa	0.36238605
12	0x3d0b0d13	0.033948015
13	0x3e8822ef	0.26589152
14	0x3e49b523	0.19698004
15	0x3daa6e39	0.083218046
16	0x3cbb1693	0.022837913
17	0x3ca23286	0.019799482
18	0x3de15fc2	0.110045925
19	0x3dc3e4fc	0.0956516
20	0x3e76a2c2	0.24085525
21	0x3db4203e	0.08795212
22	0x3e72c990	0.23709702
23	0x3e6cd5d3	0.23128442
24	0x3e67cda2	0.22637036
25	0x3da67601	0.08127976
26	0x3e3e0511	0.1855662
27	0x3e2da8e5	0.1695896
28	0x3c9b849b	0.01898413
29	0x3d042a85	0.032267112
30	0x3cd0e4cf	0.02549973
31	0x3e9468c4	0.2898618

weight f4 [4, 1184]
0	0x3bdcab08	0.0067342557
1	0x3c4c2f13	0.012462395
2	0xbbf1ef70	-0.0073832795
3	0xbc31886e	-0.01083575
4	0xbca048e8	-0.019566014
5	0xb979083f	-0.00023749562
6	0x3cb81b77	0.022474034
7	0xbc5e5fea	-0.013572672
8	0xbc517b0b	-0.012785683
9	0xbb81ba49	-0.0039589745
10	0xbc253cc9	-0.010085293
11	0xbb31b96c	-0.0027118577
12	0x3c7d00da	0.015442098
13	0x3b37a6eb	0.0028023075
14	0xbccf16f1	-0.025279494
15	0x3bb18f36	0.0054186834
16	0x3ada3843	0.0016648847
17	0x3c34afb2	0.011028217
18	0x3c59ea93	0.013300556
19	0xbca23126	-0.019798826
20	0xbb215153	-0.0024615123
21	0x3c483151	0.012218789
22	0x3c1fe79b	0.009759809
23	0x3c1e6b67	0.009669161
24	0x3c012b44	0.0078838505
25	0xbaa069a4	-0.0012238515
26	0x3b869f42	0.0041083405
27	0x3c4e8de2	0.01260707
28	0xbc9e66a1	-0.019336047
29	0x3cae7a61	0.02129859
30	0xbc23ca32	-0.009996938
31	0xbcafe17e	-0.021469828
32	0xbc9a3d97	-0.018828196
33	0x3c9c1980	0.019055128
34	0xbb51c8e3	-0.0032010607
35	0xbcc1b1a6	-0.02364428
36	0xb99d385f	-0.00029987373
37	0xbc0a36ce	-0.008435918
38	0x3d04ded8	0.032439083
39	0xbcb3b7b8	-0.02193819
40	0x3bebff0f	0.007202036
41	0x3c7938ef	0.015211328
42	0x3cca3848	0.02468504
43	0xbc9a7e2a	-0.018858988
44	0x3ccfe129	0.02537592
45	0x3ccef5fe	0.025263783
46	0xbc664c49	-0.014056274
47	0x3ccd5e66	0.025069427
48	0x3c38b0a2	0.011272581
49	0x3c77e098	0.015129231
50	0xbc3453ea	-0.011006335
51	0x3cce8dae	0.025214043
52	0xbca6d9da	-0.020367552
53	0x3cc31787	0.02381493
54	0x3cb98757	0.022647543
55	0xbcbf074b	-0.023318907
56	0xbc4a03d1	-0.012330011
57	0x3cb2b42d	0.02181443
58	0x3c30f224	0.010799918
59	0x3b19e9c0	0.0023485273
60	0x3bd7db53	0.006587425
61	0xbc15f72a	-0.009153167
62	0x3a4ffe5a	0.00079343247
63	0xbcbcc7d1	-0.023044499
64	0x3be9d8e0	0.007136449
65	0x3cbeac54	0.023275532
66	0x3c4035b4	0.011731554
67	0x3d02813f	0.03186154
68	0x3cd6c429	0.026216583
69	0xbc5c7421	-0.013455422
70	0x3ce7beef	0.028289286
71	0xbc4b6622	-0.012414487
72	0x3c58267c	0.013192769
73	0xbc488b00	-0.012240171
74	0xbad12d78	-0.0015958985
75	0x3cbee711	0.02330354
76	0x3b16ab97	0.002299046
77	0x3c3af878	0.011411779
78	0x3bf574d6	0.0074907346
79	0xbbabf9e0	-0.0052482933
80	0x3bc84fee	0.006113044
81	0xbb85be93	-0.004081556
82	0x3ad4cc90	0.0016235281
83	0x3ca86c06	0.020559322
84	0xbbaefd9c	-0.005340291
85	0x3ca65e23	0.02030856
86	0x3bac3366	0.0052551506
87	0x3cda7a14	0.02666954
88	0x3bc4e29f	0.0060084607
89	0x3b59bd5c	0.003322444
90	0x3b33c20d	0.0027428896
91	0x3cbd1029	0.023078995
92	0xbb9ea45c	-0.0048413705
93	0x3afb0710	0.0019151885
94	0xbc2e42af	-0.010636016
95	0x3aa5c920	0.0012648441
96	0x3c4d67fa	0.012536997
97	0x3a502f9c	0.00079416647
98	0xbae5687b	-0.0017502451
99	0x3c18995b	0.009313907
100	0x3c37576b	0.011190276
101	0x3c9cef62	0.019157115
102	0x3c4da478	0.012551419
103	0xbbd6b034	-0.006551767
104	0xbaa76fb9	-0.0012774385
105	0x3b1aabf6	0.0023601032
106	0x3c8282a2	0.015931431
107	0x3cfa1f0b	0.03053238
108	0xbb88f780	-0.004179895
109	0x3cce298e	0.0251663
110	0xbb8a9be0	-0.0042300075
111	0x3ca75fc1	0.020431401
112	0x3c553844	0.013013903
113	0xbbcdbe16	-0.0062787635
114	0xbaa6768b	-0.0012700123
115	0x3c6840fc	0.01417565
116	0x3a663852	0.0008782196
117	0xbb298654	-0.002586742
118	0xbb740664	-0.0037235254
119	0x3ad4c73f	0.0016233696
120	0x3bcd45db	0.006264431
121	0xbb0e150e	-0.002168003
122	0xbbc5981a	-0.006030095
123	0x3c83fffc	0.016113274
124	0xbc1e8d70	-0.009677276
125	0x3aa3f83c	0.0012509893
126	0x3b904d97	0.0044037807
127	0x3ca4a416	0.020097774
128	0xbbf78b3b	-0.0075544394
129	0xbc2b33dd	-0.010449377
130	0x3c53614d	0.012901616
131	0xbc80a578	-0.015703902
132	0xbca4f785	-0.020137558
133	0x3b3adfa7	0.0028514655
134	0x3bf10df2	0.0073563987
135	0xba1b5e6a	-0.00059268496
136	0xbb096a83	-0.0020968027
137	0xbc805204	-0.015664108
138	0xbc33bfae	-0.010970993
139	0x3bd7dc41	0.0065875356
140	0xbb88d4b2	-0.004175746
141	0x3c27cc74	0.0102416165
142	0xbb6939ee	-0.0035587507
143	0x3c4a190c	0.012335073
144	0xbc8a58c0	-0.016888022
145	0x3b6bcf8a	0.0035981857
146	0xbc42f695	-0.01189961
147	0x3a9d31cc	0.001199299
148	0x3cd1f7f6	0.025630932
149	0x3a226e01	0.00061962014
150	0x3c8b3038	0.016990766
151	0xbc4044d8	-0.011735164
152	0xbbca944e	-0.00618223
153	0x3cc42797	0.02394466
154	0xbc7a81ac	-0.015289705
155	0x3bf28a64	0.0074017514
156	0x3c3ebf91	0.011642353
157	0xbb8a86a8	-0.004227478
158	0xbb8c7b14	-0.004287133
159	0xbb9012dd	-0.00439678
160	0xba7968d9	-0.000951422
161	0x3c0fda6d	0.008780104
162	0x3b167ab2	0.0022961316
163	0x3c94cfcd	0.018165493
164	0x3cee5e53	0.029097712
165	0x3d1115aa	0.03542105
166	0xbc70d120	-0.014698297
167	0x3c20cfb1	0.0098151425
168	0x3cc4eb05	0.024037847
169	0x3c590902	0.013246777
170	0xb99b55d2	-0.00029627845
171	0x3ca6fdf8	0.020384774
172	0xbc23c153	-0.009994823
173	0x3ce206d6	0.02759115
174	0x3c4c2229	0.012459316
175	0x3d16da4c	0.036829278
176	0xbc74b235	-0.014935066
177	0x3b9e4db9	0.0048310426
178	0xbc715859	-0.014730536
179	0x3d0a3166	0.033738516
180	0xba201437	-0.0006106528
181	0x3cfc94dc	0.0308327
182	0x3d0709ae	0.032968216
183	0x3d057ca5	0.032589573
184	0xbc5debac	-0.013544958
185	0xbba52510	-0.0050398186
186	0xbc65e363	-0.014031264
187	0xbc170881	-0.009218336
188	0x3c860e23	0.016364163
189	0xbc2b9f2f	-0.010474964
190	0xbad70441	-0.0016404466
191	0x3cd69d45	0.026198039
192	0x3af4aad9	0.0018666639
193	0xbc350955	-0.011049588
194	0x3c8510de	0.016243394
195	0x3c3587a8	0.011079706
196	0x3d033096	0.032028757
197	0x3b2c4842	0.0026288186
198	0x3d1ec123	0.03875841
199	0x3c6fa1db	0.014625992
200	0x3c3604db	0.011109556
201	0xbc1676f8	-0.009183638
202	0x3d253d95	0.040341932
203	0x3c976618	0.0184813
204	0x3cea04f2	0.028566811
205	0x3ccf86ca	0.025332827
206	0xbbaa890d	-0.005204326
207	0x3b9b3aec	0.0047372486
208	0x3c362203	0.011116507
209	0x3c990a3c	0.018681638
210	0x3cb15ddb	0.0216512
211	0x3c7c7818	0.015409492
212	0xbc0d2cf4	-0.008616675
213	0xbc2cdbe5	-0.010550474
214	0x3b24905b	0.0025110457
215	0x39e3c29c	0.0004344181
216	0x3bc72759	0.0060776887
217	0x3cc9de24	0.024642058
218	0xba9fdd48	-0.0012196684
219	0x3c8ce1f9	0.017197596
220	0x3ce8a2b5	0.028397897
221	0xbc0efa9a	-0.00872674
222	0x3cd8e5e6	0.026476812
223	0x3cfac838	0.03061305
224	0xbc56a18f	-0.013100042
225	0x3d12989c	0.03579007
226	0x3c4a8017	0.012359641
227	0x3cc4a298	0.024003312
228	0xbc3ae4f1	-0.011407123
229	0xbc0fcf69	-0.008777478
230	0xbc6aeeec	-0.01433919
231	0x3c62e5e2	0.013848754
232	0x3c392482	0.011300208
233	0x3c7c080c	0.015382778
234	0xbaedafbb	-0.0018134037
235	0x3c40c0d7	0.011764727
236	0xbc5f740e	-0.013638509
237	0x3d049226	0.03236594
238	0xbc14837f	-0.009064554
239	0x3b743c2b	0.0037267308
240	0xba87e7cf	-0.0010368767
241	0x3ca6a109	0.02034046
242	0xbbf44c76	-0.007455404
243	0x3d1a30e4	0.037644282
244	0x3ca36ef7	0.019950373
245	0x3d0d89c4	0.03455521
246	0xbc1cbafd	-0.009566066
247	0xbc823abb	-0.015897145
248	0x3c009c46	0.0078497585
249	0x3cf6a378	0.030107245
250	0x3c20a7df	0.009805649
251	0x3d0b8920	0.03406632
252	0x3ce67700	0.028132915
253	0x3d0e56cd	0.03475075
254	0xbc2ad720	-0.010427266
255	0xbc7c1948	-0.015386887

bias f4 [4]
0	0x3c165257	0.009174905
1	0xbcac5ac9	-0.021039383
2	0xbcbddfc2	-0.023177985
3	0x3c9acdd6	0.018896978
